Data/Figure 1/ViSI_Layer_6a_6b_Ctgf-T2A-dgCre_Spiny.npz (npz, 2052 bytes, 7 tensors)

arr_0 f8 [6]
000000 00 00 00 60 2d 8a 4f c0 00 00 00 c0 9d a6 4c c0
       -63.07950973510742 -57.30168914794922
000010 00 00 00 a0 f7 bd 50 c0 00 00 00 40 16 ad 4b c0
       -66.9682388305664 -55.35224151611328
000020 00 00 00 c0 79 f2 4b c0 00 00 00 e0 e7 23 4e c0
       -55.89434051513672 -60.280513763427734

arr_1 f8 [6]
000000 24 e9 1a 2f f4 5a b8 3f 08 06 86 ac 0b 4d df 3f
       0.09513784551646559 0.4890774903106778
000010 5f 89 9f 99 a9 d6 de 3f 07 87 81 55 4e 83 f5 3f
       0.48185195925011287 1.3445571270062275
000020 9a 81 94 e4 1c b1 e1 3f 69 27 a3 96 09 0f f1 3f
       0.5528702225165489 1.0661712536115948

arr_2 f8 [6]
000000 fe 32 e8 02 d4 f1 24 40 e7 24 11 c4 f2 22 02 40
       10.472320643276813 2.267064601681898
000010 d2 cf f4 21 cc b9 00 40 27 95 3b d1 0f a7 f5 3f
       2.0907213833652145 1.3532865689424598
000020 ff 2c 25 2b ea ef 09 40 f3 77 fa 10 1e bb f7 3f
       3.242145859787001 1.483182970353934

arr_3 f8 [6]
000000 87 db b1 c3 4e 62 4a c0 fc 99 49 99 1f 4e 4c c0
       -52.76802869972658 -56.610339318216546
000010 00 00 00 00 00 00 49 c0 b8 42 c4 9d 86 ac 4d c0
       -50.0 -59.34785816271818
000020 a1 89 6e 5e 4a 90 4b c0 56 31 80 2f 71 08 50 c0
       -55.127269557927555 -64.13190829771824

arr_4 f8 [6]
000000 bb 78 4c aa fd 3b ea 3f a4 7b dc d4 c6 69 dd 3f
       0.8198231054446049 0.4595810965274103
000010 00 00 00 00 00 00 14 40 80 cb c3 23 00 9b d1 3f
       5.0 0.2750854825273379
000020 b7 f8 6c 1d c2 09 e9 3f db b0 12 0e e5 b7 d0 3f
       0.7824411940307731 0.2612240445548772

arr_5 f8 [6]
000000 29 b8 2b d9 40 33 18 40 44 7c a8 90 8c 7b 32 40
       6.050052064221782 18.482613602766165
000010 25 33 d5 0d a1 e2 d9 3f 62 ca ad 38 68 bd e6 3f
       0.4044573435865451 0.7106209856995742
000020 35 02 57 0c 74 55 2b 40 58 3d 4f a1 b0 c3 03 40
       13.66690100252263 2.4705517389590277

arr_6 f8 [6]
000000 22 0c 95 5f 0d de 18 40 5b d6 e5 20 a3 23 32 40
       6.216847890350467 18.139207893478993
000010 96 96 96 96 96 16 63 40 ba 9c ff bd 0d f9 00 40
       152.70588235294116 2.121608242381254
000020 7c b2 7d dc 0d c9 2b 40 1d 07 7d 23 e8 b1 04 40
       13.892683878272912 2.586868550541921
