Data/Figure 1/ViSI_Layer_5_Sim1-Cre_KJ18_Spiny.npz (npz, 1996 bytes, 7 tensors)

arr_0 f8 [5]
0	0xc04c977ec0000000	-57.183555603027344
1	0xc04d0ee8a0000000	-58.11647415161133
2	0xc04c02aa60000000	-56.02082443237305
3	0xc04d2daee0000000	-58.35689926147461
4	0xc04d092b80000000	-58.07164001464844

arr_1 f8 [5]
0	0x40135d1538858869	4.84090126338024
1	0x3fe01689a8aab98b	0.5027511877322451
2	0x4021239021a96ba0	8.56945901101227
3	0x4005a620c46ded5c	2.706117186169349
4	0x3ff4206e04e13eb0	1.2579174223537102

arr_2 f8 [5]
0	0x3ff1029ebdc6b0bd	1.0631396687631842
1	0x4003f7475fcfece2	2.4957416043595098
2	0x3fee5fd5dfc139a6	0.9491986627779638
3	0x3ff4e96bd5b9c71f	1.306987604967112
4	0x3ffe40218e45dbaa	1.8906570012602324

arr_3 f8 [5]
0	0xc04edb84774f2e14	-61.714980043089014
1	0xc04d82f520876ba5	-59.02310568439797
2	0xc04d8442e59a2777	-59.03329153086718
3	0xc049000000000000	-50.0
4	0xc04dc71ac5bc8bcc	-59.5555045290599

arr_4 f8 [5]
0	0x3fd6e2d1515fb9ac	0.3575938505809073
1	0x3fd90643d2dd1004	0.3910073813642614
2	0x3fe00e40c7065f1b	0.5017398726658685
3	0x4014000000000000	5.0
4	0x3fe14e2f2c643163	0.5407939784068215

arr_5 f8 [5]
0	0x3ff45c8b2d4783f2	1.27259366690873
1	0x401c0bbde7e612a4	7.011466620843439
2	0x4001b236fd1f9d5f	2.2120189452431727
3	0x401a7328b454f787	6.612459962545365
4	0x400097e5b9335e48	2.0741686314393384

arr_6 f8 [5]
0	0x4007d9afdef25478	2.9812924783423647
1	0x4020b088903d3c41	8.344791896319409
2	0x4011b8de3b66fc31	4.430535247956002
3	0x405e1555555431bd	120.33333333227252
4	0x40120cac664e41c3	4.512376402403279
