Data/Figure 1/ViSp_Layer 6b_Ctgf_T2A_dgCre.npz (npz, 2780 bytes, 7 tensors)

arr_0 f8 [19]
0	0xc04cd50ae0000000	-57.66439437866211
1	0xc04bf89220000000	-55.941959381103516
2	0xc04f0bdd60000000	-62.09269332885742
3	0xc04aee46a0000000	-53.86153030395508
4	0xc04e000ee0000000	-60.00045394897461
5	0xc04dee0d20000000	-59.85977554321289
6	0xc04e49f5a0000000	-60.57780838012695
7	0xc04c9c3700000000	-57.220428466796875
8	0xc04d32d720000000	-58.39719009399414
9	0xc04c10e4c0000000	-56.131980895996094
10	0xc05001dd00000000	-64.02911376953125
11	0xc04b0e32c0000000	-54.110923767089844
12	0xc04d6131e0000000	-58.759334564208984
13	0xc04adbcce0000000	-53.71718978881836
14	0xc0518128c0000000	-70.01811218261719
15	0xc04c81ddc0000000	-57.01457977294922
16	0xc0503eb820000000	-64.97998809814453
17	0xc04f8a34a0000000	-63.07973098754883
18	0xc04e046d00000000	-60.034576416015625

arr_1 f8 [19]
0	0x3fd957d3dda65597	0.3959855713413502
1	0x3fea1fcfc5aa8afa	0.8163832531612052
2	0x3fd377ba32a6bf4f	0.30418257662221476
3	0x3ffd3490b50648de	1.82533331597056
4	0x3ff0c660af29129b	1.0484320490078634
5	0x3fca033548b7ab17	0.2032229046884246
6	0x3fd4b3cf5effe580	0.323474734089892
7	0x4007e56c6b506df2	2.9870231994552734
8	0x3fe0da9faa68f297	0.5266874626464241
9	0x3fe71ac07024565a	0.7220155897400204
10	0x3fc5f55c06cbdbbc	0.17155027706004755
11	0x3ff8b16bb897c60f	1.543315621438868
12	0x3ff9b07cef46f977	1.6055878969924302
13	0x3fe1d43f74707eb9	0.557159163876313
14	0x3fc2ea2f98bd30ab	0.14777178724250936
15	0x3fdde5aebe93f290	0.46714371310353275
16	0x3fcc6876375a52eb	0.221937920596836
17	0x3fc7e6636b16137b	0.18671839455432945
18	0x3fe6aac483880f78	0.7083456582044922

arr_2 f8 [19]
0	0x40059a37a8ac73b3	2.7003014733913573
1	0x3fff1969932f72b6	1.943704199736357
2	0x400f083894d35359	3.8790141703597496
3	0x3ff5101e1a0b6c89	1.3164349572532805
4	0x3ffab555b5503f99	1.6692711908872069
5	0x400fb7eafe6f2e64	3.964803684013349
6	0x400549cef1bd797e	2.6610392461727193
7	0x3ff3dfaaadc36766	1.2421061313275117
8	0x4003e8f33403c521	2.488745123257687
9	0x3fff9031be0f2dfa	1.9727036880675528
10	0x4013ca6f3078243b	4.947689778645379
11	0x3ffb6e7eef78b310	1.7144765238146569
12	0x3ff5fb003fd145f4	1.3737795346136155
13	0x4001a39adc332e09	2.2048852160567134
14	0x3fdb69c3c75cb525	0.4283303686996354
15	0x400282357b1830b5	2.3135785691029818
16	0x3ff523073d75159f	1.3210518265417261
17	0x401105e7add6d325	4.255766597973694
18	0x3ff87c58e9b7f388	1.530358231509327

arr_3 f8 [19]
0	0xc04c8a3ab2e85482	-57.07991634697193
1	0xc04c9aacabed1fa2	-57.20839451864528
2	0xc04e1be5137d3946	-60.21792834867897
3	0xc04d0a376f0ebf4a	-58.079816705895226
4	0xc04f7eb7c142ed4c	-62.989982755355044
5	0xc04c3f9895aaa840	-56.49684401352761
6	0xc04ea8e650f90291	-61.31952869566624
7	0xc04de9d534b1ad4c	-59.826819025760955
8	0xc04d8b0a80bef24a	-59.08625802348668
9	0xc04c96265bd1c2de	-57.17304561369177
10	0xc04dc18d83825372	-59.51213115562031
11	0xc04ba6b3234d1907	-55.30234185471095
12	0xc04e5c1aa98c5d80	-60.71956366876384
13	0xc04af7d605c4bb0b	-53.93621894937504
14	0xc04a3af1e36713e4	-52.46050684483615
15	0xc04d91ed8d07a687	-59.14006197808799
16	0xc04b0598b6ba9f05	-54.04372295486795
17	0xc04df8011f65a3c7	-59.9375342603958
18	0xc04f694a9f956490	-62.82258982462474

arr_4 f8 [19]
0	0x3fdac8d62d1f02b9	0.4185080948482596
1	0x3fdb7634fb16a9bc	0.4290897800480271
2	0x3fe1fcdbf841d9f1	0.562116608502775
3	0x3fd31670cd994e02	0.2982446677972065
4	0x3fd4f30f166f4b80	0.32733514014142173
5	0x3fdacc30f55c77b9	0.41871284447722307
6	0x3fd22be9a508264c	0.28393021694555354
7	0x3fdcfa9d57860ab7	0.45279630229212436
8	0x3fda9814b1d119f6	0.41553227772638424
9	0x3fd9c0d9734f10fb	0.40239559422140275
10	0x3fde668e5cbf3ca4	0.475009527753125
11	0x3fe310e0a6d1f7b1	0.5958102472502472
12	0x3fd96ab3e204bdc6	0.3971376139843098
13	0x3fda989e04773b53	0.41556501804455087
14	0x4023fffff821cb02	9.999999765515444
15	0x3fd2c371d46ebcd4	0.2931789946114354
16	0x3fde18be9b778e6e	0.4702602880699719
17	0x3fd887ce9907d00a	0.3832890028418211
18	0x3fcd721f60bd8747	0.23004524444245986

arr_5 f8 [19]
0	0x4008e5a0a81d6577	3.1121228345843366
1	0x3fe03abe869b445b	0.5071709279092248
2	0x4016e1f2f35810d8	5.720653345346555
3	0x3feec1e00b313fcd	0.9611664026833694
4	0x3ff53fd6d6f8157f	1.3280857465009317
5	0x40171b0051684737	5.776368400563846
6	0x4001d1f269c762ec	2.2275131477330117
7	0x3fecb1f7e22c8a1d	0.8967246453724474
8	0x4011ddd0082992de	4.466613891160447
9	0x4000b55d5b80e215	2.0885569714266787
10	0x401192886346ed4c	4.3930984031715745
11	0x4002a9a1ac1ec981	2.3328278967757687
12	0x3ff57eaca7b568ae	1.3434263754957487
13	0x400b90dc182ff51b	3.4457322969088984
14	0x40060c64605ab6f2	2.7560508277591618
15	0x4021d73126a4ae86	8.920296866991759
16	0x401bb3d6e8cb4521	6.925624501616114
17	0x4017b8e4b48d5a18	5.9305599414133425
18	0x3fe6f871039aa245	0.7178273268119219

arr_6 f8 [19]
0	0x401340c354b4df3a	4.813245128192472
1	0x3ff2a60c02960aea	1.1655387974757851
2	0x4014136cc8135396	5.018969656161877
3	0x4011a680644335ca	4.412599150278263
4	0x401093ff7ae99c69	4.144529266842349
5	0x40199a52346b4df3	6.400704211282107
6	0x4012e5b3c7d305bc	4.724318620924745
7	0x400b5f345ee4077c	3.4214866078700066
8	0x401e8dcb0a174707	7.63846984641146
9	0x40049a86659779fc	2.5754516541339836
10	0x401a6991bfc3f1ad	6.603095051130748
11	0x400f22f629dbf872	3.89207108213946
12	0x3ff69cc0a77e5739	1.4132696669307292
13	0x400a4cab79d3b090	3.2874364392974442
14	0x4004cd10733cb143	2.600129032411276
15	0x402dc600e1b2749e	14.886725476297496
16	0x40188a0c42a8b781	6.134812394664437
17	0x401f95c906f8bc1e	7.896274670535631
18	0x3ffab21f22fe6785	1.6684867255157496
