Data/Figure 1/ViSp_Layer_5_Scnn1a_Tg2_Cre_Spiny.npz (npz, 2388 bytes, 7 tensors)

arr_0 f8 [12]
000000 00 00 00 60 cd 6f 51 c0 00 00 00 a0 ff 45 4f c0
       -69.74691009521484 -62.5468635559082
000010 00 00 00 e0 18 7a 50 c0 00 00 00 20 58 36 4f c0
       -65.90776824951172 -62.424564361572266
000020 00 00 00 60 e5 a6 4e c0 00 00 00 a0 b6 3c 50 c0
       -61.30387496948242 -64.94864654541016
000030 00 00 00 00 ce 96 4e c0 00 00 00 60 75 03 4b c0
       -61.17816162109375 -54.02701950073242
000040 00 00 00 40 2e d5 4d c0 00 00 00 e0 01 a3 50 c0
       -59.66547393798828 -66.54698944091797
000050 00 00 00 20 a4 e8 4f c0 00 00 00 20 ed 8e 4d c0
       -63.817508697509766 -59.11661148071289

arr_1 f8 [12]
000000 86 de 1b 54 c0 b5 b7 3f 02 02 08 67 39 88 c3 3f
       0.09261705449523036 0.15259473353218317
000010 32 a0 42 8a b7 74 c7 3f 83 d7 ea 54 e3 76 c1 3f
       0.183249418744937 0.13644067427020098
000020 c4 fa 58 22 18 11 d6 3f 08 69 fd 08 da 74 ca 3f
       0.3447933516908217 0.20669103087386298
000030 05 8b b9 03 eb f7 c3 3f 61 aa 3d 10 52 bb 09 40
       0.15600335771440413 3.2164651173418837
000040 fd 4d 14 c3 d6 2a f3 3f 2c d8 c5 81 c3 ef bd 3f
       1.1979587192807906 0.11693975370676019
000050 8b 34 41 8d 5e 80 e1 3f 33 44 fc 1c d4 a1 b5 3f
       0.5469200858002677 0.08450055797244786

arr_2 f8 [12]
000000 39 ce 8e 22 9b 6a 21 40 c9 cf 03 7f 19 5e 13 40
       8.70821483605606 4.84189413510098
000010 52 4c 27 99 87 c9 07 40 5c c1 ce 1a 1c 15 16 40
       2.973403164397987 5.5206150234883715
000020 f3 ee 88 98 f6 7f 03 40 20 06 84 69 43 7d ff 3f
       2.437482062987209 1.9680818673808815
000030 2f 54 d0 b1 a7 db 12 40 8b b0 a6 5c dc 9b f1 3f
       4.714506891575225 1.10055195037697
000040 cf 3b 9c fa 2d 1b fc 3f 5f f9 0c 51 3c 9d 10 40
       1.7566356458153114 4.1535504020851866
000050 72 69 8e d2 3e b6 ff 3f c0 e4 57 46 69 6f 13 40
       1.9819935059409457 4.858800028910252

arr_3 f8 [12]
000000 f6 e8 c3 21 ac c3 4d c0 42 c2 7e a1 57 c8 4c c0
       -59.52869054857176 -57.56517428101917
000010 7e 87 17 78 b4 42 50 c0 da 6e 78 ec b3 00 4c c0
       -65.04226496026783 -56.0054908359577
000020 d4 f4 3a 91 ce 43 4e c0 1f 70 41 05 1f 40 4f c0
       -60.52974143389443 -62.50094667144025
000030 4d 49 dc 0d 3b c6 4b c0 03 f2 da 1a 22 56 4c c0
       -55.548677189408956 -56.672915799052156
000040 dd 45 e8 d8 bb 83 4e c0 3a 80 6d 74 85 b7 4d c0
       -61.02917014447642 -59.433760217158536
000050 00 00 00 00 00 00 49 c0 82 ec f0 d0 ba 16 49 c0
       -50.0 -50.17757617725239

arr_4 f8 [12]
000000 1d cf 84 cf 5e 0d e3 3f 79 78 f5 da b8 86 da 3f
       0.5953821232892299 0.4144727838773928
000010 76 10 c4 b3 c0 07 cb 3f 3c 5e 28 18 a7 02 df 3f
       0.21117409494047806 0.48453690871381006
000020 47 47 b3 68 e9 37 d5 3f 43 4d d0 22 7a 13 c7 3f
       0.33153758263243954 0.18028189372908274
000030 dc d4 0b 37 e6 fa dd 3f 13 69 bf 29 da 7e da 3f
       0.46843867660147764 0.41399244381831685
000040 64 50 40 ee d0 85 df 3f ca 0e 30 7d 15 d2 d2 3f
       0.49254248873444895 0.2940725061928161
000050 00 00 00 00 00 00 14 40 e1 98 d5 b7 37 3f cd 3f
       5.0 0.22849174953734688

arr_5 f8 [12]
000000 c6 71 e7 05 05 66 f8 3f f4 80 b0 33 af 4d 03 40
       1.5249071341159932 2.412931827377287
000010 58 bf 3f 0a 26 ee f7 3f a4 db bc 2f 52 8e f4 3f
       1.4956417465545737 1.2847463478808345
000020 83 69 26 7f 0a 03 e9 3f 31 e0 e0 f8 dc 6a e8 3f
       0.7816212161445012 0.7630448208719881
000030 83 b0 f8 55 37 77 10 40 21 da 27 35 a3 38 e5 3f
       4.116422026923945 0.663163760966942
000040 31 83 c3 9f cb e4 f7 3f 34 09 6e 21 6f 37 f9 3f
       1.4933582535524688 1.5760337167599348
000050 3d 22 6c 9c 86 63 ca 3f 66 9b 63 ec f0 f3 2d 40
       0.20616228711902976 14.976447474631367

arr_6 f8 [12]
000000 39 8e d6 84 c8 63 fc 3f 07 59 df 4c f8 ef 06 40
       1.774361151598795 2.8671728139553383
000010 1b 27 58 b4 4a 52 fe 3f dc 76 93 f2 ee f4 f4 3f
       1.8950907749844592 1.3097981906534448
000020 e1 ff 94 c9 6e 14 f3 3f 32 b8 e7 26 f7 06 f1 3f
       1.1924884676263832 1.0642005462391464
000030 8d fe d7 0a 60 82 12 40 d4 a8 53 cf 05 96 03 40
       4.627319497521637 2.448253268948159
000040 8d e1 b4 b9 94 86 08 40 98 8f fa a6 22 31 f7 3f
       3.0657133587193983 1.4494959375960885
000050 1a 89 65 66 66 16 5e 40 14 69 77 e5 e8 65 2e 40
       120.34999999919492 15.199042483164284
